management/BETA17/Beta-17.pth (torch, 5343 bytes, 6 tensors)

fc1.weight f4 [24, 2]
0	0xbfc413ec	-1.531858
1	0xbfb627da	-1.4230912
2	0xbdedc224	-0.11609295
3	0xbc14f7c8	-0.009092279
4	0xbf81d573	-1.0143265
5	0xc015df41	-2.3417513
6	0xbf423c73	-0.7587349
7	0xc06325b4	-3.5491762
8	0x3cffe234	0.031235792
9	0xc07e2e9d	-3.971595
10	0xbf701bd8	-0.93792486
11	0xbe902783	-0.28155145
12	0xc0b34458	-5.6020927
13	0xbfd3394c	-1.6501861
14	0xbc93faca	-0.018063921
15	0xbb34c044	-0.002758042
16	0xbf109d58	-0.5649009
17	0xbf6060ff	-0.87648004
18	0xbeefeedd	-0.46861926
19	0xc00a8f3c	-2.1649923
20	0x3bc56048	0.0060234405
21	0xbe622840	-0.22085667
22	0xc08cafaf	-4.3964458
23	0xbdc738f6	-0.09727661
24	0xbf57f1c1	-0.8435326
25	0xbf344823	-0.7042257
26	0xbe3974e2	-0.18110994
27	0xbc822257	-0.015885515
28	0xbe728ef4	-0.23687345
29	0xbd1a0570	-0.03760284
30	0xc0144924	-2.3169641
31	0xbc36d3b5	-0.011158873
32	0xbf5bf5f3	-0.85922164
33	0x3c331e27	0.010932482
34	0xbdba620a	-0.09100731
35	0xbddfe722	-0.10932757
36	0xbf75a9c3	-0.9596216
37	0x3b2db1e0	0.0026503727
38	0xbf05c322	-0.52250874
39	0xbe48a928	-0.19595778
40	0xbeb66696	-0.35625142
41	0xbdb568b2	-0.0885786
42	0xbf4ef6fa	-0.80845606
43	0xbfb469e8	-1.409482
44	0xbf4aaac2	-0.79166806
45	0xbe95083f	-0.29107854
46	0xbeaf676f	-0.342586
47	0x3d87233b	0.065985166

fc1.bias f4 [24]
0	0xb8603a00	-5.345978e-05
1	0xbfade7b4	-1.3586335
2	0x4080d6e3	4.0262313
3	0xbf31449a	-0.692453
4	0xbed2d8de	-0.41181082
5	0xbc3abb44	-0.011397187
6	0xbc7d261d	-0.015450981
7	0xbe7d42d3	-0.24732523
8	0x4068723b	3.631972
9	0x404bb863	3.183129
10	0x408ac20f	4.336189
11	0x40075d3e	2.115066
12	0xbf37f5d8	-0.718595
13	0xbc8b1447	-0.016977442
14	0xbe94e0de	-0.2907781
15	0x40801c87	4.0034823
16	0xbf1bc155	-0.60841876
17	0xbeb15746	-0.34636897
18	0xc00bb152	-2.1826978
19	0xbeea300f	-0.4573979
20	0xbf063648	-0.52426577
21	0x408646f5	4.1961617
22	0xba8766a8	-0.0010330277
23	0xc1110077	-9.0626135

fc2.weight f4 [24, 24]
0	0xbe5413c4	-0.20710665
1	0xbe1a017f	-0.15039633
2	0xbe493cf6	-0.19652161
3	0x3cff0a20	0.031132758
4	0xbdf3889f	-0.11891293
5	0xbd92655f	-0.07148241
6	0xbd2eb54b	-0.042653363
7	0x3d74cdf2	0.059766717
8	0xbd935690	-0.07194245
9	0xbe476eef	-0.19475912
10	0xbed116e3	-0.40837774
11	0x3bf31880	0.007418692
12	0x3cbac938	0.022801027
13	0x3c15e23c	0.009148177
14	0x3d9f1fe4	0.077697545
15	0xbe2168bd	-0.1576261
16	0xbd8d311c	-0.068941325
17	0xbd0c30a6	-0.034226082
18	0xbd7b3caa	-0.06133715
19	0xbd71beec	-0.059019968
20	0xbdea945d	-0.11454079
21	0x3d1e89e6	0.03870573
22	0xbecf3881	-0.40472797
23	0xbdf077a7	-0.11741572
24	0xbe0b9305	-0.13630302
25	0xbdbaf2a0	-0.09128308
26	0xbe1528d2	-0.14566353
27	0x3da34ab0	0.0797323
28	0xbe55d454	-0.20881778
29	0xbd853abb	-0.065053426
30	0xbda81ce0	-0.082086325
31	0x3d9c2323	0.07623889
32	0xbe3091f1	-0.17243172
33	0xbe9d8d88	-0.30772042
34	0xbd809a03	-0.062793754
35	0x3b88ca80	0.0041745305
36	0xbd3f0686	-0.04663708
37	0xbe159ffa	-0.14611807
38	0xbe0235ac	-0.12715787
39	0xbe8cfacb	-0.2753509
40	0xbe3f5abe	-0.18686959
41	0xbe1eee5e	-0.15520617
42	0xbcffd05c	-0.031227283
43	0x3e265fcc	0.16247481
44	0xbcb51c8c	-0.022108339
45	0xbd7b409c	-0.061340913
46	0xbd8ae838	-0.067825735
47	0xbd80538b	-0.062659346
48	0x3ce6c6a5	0.028170893
49	0x3fb9d7af	1.4518946
50	0xbf02e59f	-0.51131624
51	0xbe474734	-0.19460756
52	0xbf2b91d1	-0.67019373
53	0xbd41a8d7	-0.04728016
54	0xbe9af66e	-0.30266136
55	0xbe28ffeb	-0.16503875
56	0xbec21fac	-0.3791479
57	0x3edf647b	0.43631348
58	0xbf3df968	-0.7420869
59	0xc0739c5e	-3.806419
60	0xbefe9f3d	-0.49730864
61	0xbe5205dc	-0.20510048
62	0xbe4129d6	-0.18863615
63	0xc093bc9d	-4.616774
64	0xbe29d5f2	-0.1658552
65	0xbd226a74	-0.039652303
66	0x3e153268	0.1457001
67	0x3cf5e530	0.030016512
68	0xc0061121	-2.0947955
69	0xbf352686	-0.7076191
70	0xbf390549	-0.7227369
71	0xc08169de	-4.0441732
72	0xbf2cc438	-0.67486906
73	0xbf719372	-0.9436561
74	0x40a32cb9	5.0992093
75	0x3f2c960d	0.6741646
76	0xc0193e69	-2.3944342
77	0xbea4171b	-0.32048878
78	0xbdcb197a	-0.09916969
79	0x3da34662	0.07972409
80	0x3f06cfa1	0.52660567
81	0xbf964631	-1.1740171
82	0xbe8b4e04	-0.2720796
83	0xc09b7fa2	-4.85933
84	0xc004d940	-2.07576
85	0x3d30becf	0.04315072
86	0x3e217318	0.15766561
87	0xc142a6be	-12.165709
88	0xbe6f7be2	-0.23387101
89	0xbf23e15b	-0.6401574
90	0xbd874520	-0.066049814
91	0x3e0612d8	0.13093126
92	0x3e16fa6f	0.1474397
93	0xbf6c5b2b	-0.9232661
94	0xbe2f4c40	-0.17118931
95	0xc1c1426e	-24.157436
96	0x3d2a3036	0.041549884
97	0xbe44642a	-0.19178835
98	0x3ea23dee	0.31687874
99	0x3ce92fba	0.02846514
100	0xbdc2a8b2	-0.09504832
101	0xbaa69580	-0.0012709349
102	0xbe72e2c3	-0.23719315
103	0x3d67360a	0.05644802
104	0x3d071b25	0.03298487
105	0xbe6ffe52	-0.23436859
106	0xbd19a4f8	-0.037510842
107	0xbd88b1fa	-0.06674571
108	0x3d92d3d6	0.07169311
109	0xbdb9053f	-0.09034204
110	0x3e3aacfe	0.18230054
111	0xbed1d124	-0.40979874
112	0x3e438638	0.19094169
113	0xbe9a6ad6	-0.30159634
114	0xbe352af4	-0.17692167
115	0x3e2af0d6	0.16693434
116	0x3d3db31c	0.04631339
117	0xbe440a70	-0.19144607
118	0xbe03c05e	-0.12866351
119	0xbe899f69	-0.26879433
120	0x3e1e5eb8	0.1546582
121	0xbb3645d0	-0.0027812608
122	0xbe68cc2a	-0.22734132
123	0xbe51cc1f	-0.20488022
124	0xbddec7b7	-0.10877936
125	0xbf01c6f2	-0.5069419
126	0xbe870fb5	-0.2637917
127	0xbe82d315	-0.25551668
128	0xbf1f154c	-0.6214187
129	0x3c4af780	0.01238811
130	0xbf017e01	-0.5058289
131	0xbe0c4ce3	-0.13701205
132	0xbf6bcaa0	-0.92106056
133	0x3e2a3458	0.1662153
134	0xbd7af5d0	-0.06126958
135	0xbef7f644	-0.48430073
136	0x3c736338	0.014855199
137	0x3b9a03c6	0.004700157
138	0xbe1b2e9f	-0.15154503
139	0xbc7f4950	-0.015581444
140	0xbed1224f	-0.40846488
141	0x3ebc0b19	0.36727217
142	0xbfa74c6e	-1.30702
143	0xbec5d9e4	-0.386428
144	0x3d25a9ca	0.040445127
145	0x3b03d200	0.0020114183
146	0x3d3884a8	0.045048386
147	0xbcae7f6c	-0.021300994
148	0xbe6bbbfc	-0.23020929
149	0xbe54c6a2	-0.20778897
150	0xbc67da70	-0.014151201
151	0xbe76e5b0	-0.24111056
152	0xbe7d6866	-0.24746856
153	0xbe709fdc	-0.23498482
154	0xbe96f34a	-0.2948249
155	0xbe857f4d	-0.26073685
156	0xbe8a1105	-0.2696611
157	0x3d6b2216	0.057405554
158	0xbd0cf6cc	-0.03441505
159	0xbde86c72	-0.11348809
160	0xbe3aedc2	-0.1825476
161	0xbe835cb2	-0.25656658
162	0xbe93b3ab	-0.28848013
163	0xbe3303de	-0.17481944
164	0xbe6b7242	-0.22992805
165	0x3cf55804	0.029949196
166	0xbd25c776	-0.040473424
167	0xbda344f2	-0.07972135
168	0xbd19b776	-0.037528478
169	0xc073a2dd	-3.8068154
170	0x3f961eff	1.1728209
171	0xc00b36d0	-2.1752205
172	0xbfab32fb	-1.3374933
173	0x3daf917c	0.08572671
174	0xbee4495a	-0.44587213
175	0xbde18a72	-0.110127345
176	0xc00974e2	-2.147759
177	0x403541e2	2.8321462
178	0x3ee9530e	0.45571178
179	0xc06683ae	-3.601787
180	0xbfbaff0b	-1.4609083
181	0x3d8c7115	0.06857506
182	0xbb034100	-0.0020027757
183	0xc0e13d25	-7.038714
184	0xbe30a7d9	-0.17251529
185	0xbe138d6b	-0.14409415
186	0xbee7be22	-0.45262247
187	0x3e2f8fcc	0.17144698
188	0xc07cf0b2	-3.9521909
189	0xc0bae236	-5.8401136
190	0xbf24f801	-0.64440924
191	0xc0bfe72a	-5.9969683
192	0xbe0e829b	-0.1391701
193	0xb9d6c800	-0.00040966272
194	0xbe49368f	-0.19649719
195	0x3d16a6d4	0.036780193
196	0x3c02c6e0	0.007981986
197	0xbe16025e	-0.1464934
198	0x3ddec43d	0.10877273
199	0xbe2115c2	-0.15730956
200	0xbe51fb35	-0.20505984
201	0xbe2c32ba	-0.16816226
202	0xbe0a8f12	-0.1353114
203	0xbe1da42e	-0.15394661
204	0xbe4d0dcc	-0.20024794
205	0xbd2280e1	-0.03967369
206	0xbe207ac4	-0.15671831
207	0x3b4eec40	0.0031573921
208	0x3e7a4d0a	0.2444345
209	0xbdd16b90	-0.10225594
210	0xbe0117be	-0.12606713
211	0xbd7bb7d4	-0.06145461
212	0xbcdd05b8	-0.026980266
213	0xbd8dc391	-0.06922067
214	0xbe2e1afc	-0.17002481
215	0xbdd412fc	-0.103551835
216	0xbdb65eb8	-0.08904785
217	0xbe971142	-0.29505354
218	0xbf25c24c	-0.647496
219	0xbe47b3b1	-0.1950214
220	0xbe0b0fe7	-0.13580285
221	0xbef30b1f	-0.47469422
222	0xbe534b03	-0.20634083
223	0x3db1e5aa	0.08686383
224	0xbeb85d66	-0.36008757
225	0xbe69a768	-0.22817767
226	0xbde61ed2	-0.11236347
227	0xbdad81cf	-0.08472025
228	0xbd1ee300	-0.038790703
229	0xbd9b48ec	-0.07582268
230	0x3e200084	0.15625197
231	0xbdd8a8f7	-0.105791025
232	0xbb08dfe1	-0.0020885395
233	0xbe54e306	-0.20789728
234	0x3ca9ba3c	0.020718686
235	0xbdb3a508	-0.087717116
236	0xbe76514e	-0.24054453
237	0xbea295f4	-0.3175503
238	0xbcb3d594	-0.021952428
239	0xbe4d0b46	-0.20023832
240	0x3f10f723	0.566271
241	0xc067ba08	-3.6207294
242	0xbf733584	-0.95003533
243	0xbf07c465	-0.5303405
244	0xbfeb29ca	-1.8372128
245	0x3eb8e59e	0.36112684
246	0xbdcd1265	-0.10013274
247	0xbd00a442	-0.03140665
248	0xbf28284a	-0.65686476
249	0xbef0d0b1	-0.4703422
250	0x3fa3ea3e	1.280586
251	0xc11ecc52	-9.924883
252	0xbd5cf2b5	-0.0539424
253	0x3bcaee68	0.006192971
254	0x3dbfe5e8	0.09370023
255	0xc1720132	-15.125292

fc2.bias f4 [24]
0	0xbe841f3c	-0.2580508
1	0xbe90db02	-0.2829209
2	0x409227fb	4.5673804
3	0x403a9355	2.9152424
4	0xbe624dbe	-0.22099969
5	0xbf1a725f	-0.60330766
6	0xbd56e456	-0.052463852
7	0x3e8732d3	0.26405963
8	0xbe0e90a3	-0.13922362
9	0xbe941145	-0.28919426
10	0x40cc64cc	6.3873043
11	0xbe8bec77	-0.27328846
12	0x40d7bf39	6.7420926
13	0xbe3a44f6	-0.18190369
14	0xc0136165	-2.3028195
15	0x3ebdaa49	0.3704398
16	0xbe8d490c	-0.27594793
17	0xbfdf6e69	-1.745557
18	0xbea74f1f	-0.32677552
19	0xc02e21fe	-2.7208247
20	0xbec0195c	-0.37519348
21	0xbe368e9c	-0.17827839
22	0xbf5ed932	-0.87050164
23	0xbe58bb70	-0.21165252

fc3.weight f4 [4, 24]
0	0x3c5cc0e0	0.013473719
1	0x3d69e2b4	0.057100967
2	0x3e8dd77a	0.27703458
3	0xc11cf461	-9.809663
4	0xbdb7e42c	-0.08979067
5	0xbe379bfd	-0.17930599
6	0x3d46062e	0.048345737
7	0xc0b6f7fc	-5.7177715
8	0x3e0711bb	0.13190357
9	0xbc6ec0f8	-0.0145723745
10	0xbec2b328	-0.3802731
11	0xbc85a2a4	-0.016312905
12	0x4047a402	3.1193852
13	0x3e20af8c	0.15691966
14	0x3d67242a	0.056430973
15	0x3f7e7a6d	0.99405557
16	0x3d6d295e	0.05790078
17	0xbf81f595	-1.0153071
18	0x4015beb9	2.3397658
19	0x3daac7c5	0.08338884
20	0xbe431fcb	-0.19055097
21	0xbd8c201a	-0.068420604
22	0xbf707241	-0.9392434
23	0xbcb07a6c	-0.02154275
24	0x3d2c53ed	0.042072225
25	0x3d857247	0.06515937
26	0x403bcee4	2.9345026
27	0x3e987d5c	0.29783142
28	0xbe06ec9d	-0.13176198
29	0x3d43bc76	0.047787152
30	0x3d55e02c	0.05221574
31	0x3d900e74	0.07034007
32	0xbda4af0a	-0.080411986
33	0x3dca3cd1	0.09874881
34	0x402346e5	2.551202
35	0x3d96307f	0.07333469
36	0xbf2a1b97	-0.6644835
37	0x3d1cf682	0.038321026
38	0xbe157c16	-0.14598116
39	0xbf56d214	-0.83914304
40	0x3e3bcd52	0.18340042
41	0x3ea25bb6	0.31710595
42	0xc0cbf13f	-6.373199
43	0xbfd6ce04	-1.6781621
44	0xbdc416f9	-0.09574694
45	0xbd92a95d	-0.0716121
46	0x40368cdc	2.8523474
47	0xbd9b7162	-0.075899854
48	0x3d78c71a	0.060736753
49	0x3e35bd21	0.17747928
50	0x404b9d7e	3.1814876
51	0x3f2ef397	0.6834044
52	0x3e52f192	0.20599964
53	0xbd10f278	-0.035387486
54	0xbe1b6d3f	-0.15178393
55	0x3ef7e2e2	0.48415285
56	0x3deac832	0.114639655
57	0xbc794140	-0.015213311
58	0x400abdd0	2.1678352
59	0xbc0f3760	-0.00874123
60	0xbf188343	-0.5957529
61	0x3ddadb51	0.106863625
62	0xbd542d50	-0.051801026
63	0x3fd95d80	1.6981659
64	0x3cc09448	0.023508206
65	0x3f14c5a5	0.5811408
66	0xc0b06abf	-5.5130305
67	0xc113ac62	-9.229586
68	0x3e36be71	0.17846085
69	0x3d572cac	0.052532837
70	0x3fb6e490	1.4288502
71	0x3d8acfe0	0.0677793
72	0x3dc48fca	0.09597738
73	0xbd5f57f8	-0.054527253
74	0x40339923	2.8062217
75	0x3f5f4e4d	0.8722885
76	0xbe63e9c7	-0.22257148
77	0x3d0cee0b	0.034406703
78	0xbd31bd16	-0.043393217
79	0xbf829221	-1.0200845
80	0x3d545c7f	0.051846024
81	0xbce095fa	-0.027415264
82	0x4020e26c	2.5138197
83	0xbe556375	-0.20838721
84	0xbefe3a67	-0.49653932
85	0x3aa41d00	0.001252085
86	0xbf0ce706	-0.55040014
87	0xbf20b063	-0.62769145
88	0x3e39f13e	0.18158433
89	0x3f6515e2	0.89486516
90	0xc0e33f48	-7.101475
91	0xc0b93047	-5.787143
92	0xbad78400	-0.0016442537
93	0x3a777b80	0.0009440705
94	0x3fb470df	1.4096946
95	0xbdd460ac	-0.10370001

fc3.bias f4 [4]
0	0x410f7d3f	8.968078
1	0x407c4f83	3.942353
2	0x404e4abc	3.2233114
3	0x40279875	2.6186802
